…
colab":{"base_uri":"https://localhost:8080/"},"executionInfo":{"elapsed":1556,"status":"ok","timestamp":1678166036829,"user":{"displayName":"Sarose Datta","userId":"12121747032215597349"},"user_tz":-360},"id":"8U583WF-HCRl","outputId":"086d5c18-e3ca-4bfc-840b-8af0cd2fe611"},"outputs":[{"output_type":"stream","name":"stdout","text":["Model: \"sequential\"\n","_________________________________________________________________\n"," Layer (type)                Output Shape              Param #   \n","=================================================================\n"," conv2d (Conv2D)             (None, 148, 148, 32)      896       \n","                                                                 \n"," conv2d_1 (Conv2D)           (None, 146, 146, 32)      9248      \n","                                                                 \n"," batch_normalization (BatchN  (None, 146, 146, 32)     128       \n"," ormalization)                                                   \n","                                                                 \n"," max_pooling2d (MaxPooling2D  (None, 73, 73, 32)       0         \n"," )                                                               \n","                                                                 \n"," dropout (Dropout)           (None, 73, 73, 32)        0         \n","                                                                 \n"," conv2d_2 (Conv2D)           (None, 71, 71, 64)        18496     \n","                                                                 \n"," conv2d_3 (Conv2D)           (None, 69, 69, 64)        36928     \n","                                                                 \n"," batch_normalization_1 (Batc  (None, 69, 69, 64)       256       \n"," hNormalization)                                                 \n","                                                                 \n"," max_pooling2d_1 (MaxPooling  (None, 34, 34, 64)       0         \n"," 2D)                                                             \n","                                                                 \n"," dropout_1 (Dropout)         (None, 34, 34, 64)        0         \n","                                                                 \n"," conv2d_4 (Conv2D)           (None, 32, 32, 128)       73856     \n","                                                                 \n"," conv2d_5 (Conv2D)           (None, 30, 30, 128)       147584    \n","                                                                 \n"," batch_normalization_2 (Batc  (None, 30, 30, 128)      512       \n"," hNormalization)                                                 \n","                                                                 \n"," max_pooling2d_2 (MaxPooling  (None, 15, 15, 128)      0         \n"," 2D)                                                             \n","                                                                 \n"," dropout_2 (Dropout)         (None, 15, 15, 128)       0         \n","                                                                 \n"," conv2d_6 (Conv2D)           (None, 13, 13, 64)        73792     \n","                                                                 \n"," conv2d_7 (Conv2D)           (None, 11, 11, 64)        36928     \n","                                                                 \n"," batch_normalization_3 (Batc  (None, 11, 11, 64)       256       \n"," hNormalization)                                                 \n","                                                                 \n"," max_pooling2d_3 (MaxPooling  (None, 5, 5, 64)         0         \n"," 2D)                                                             \n","                                                                 \n"," dropout_3 (Dropout)         (None, 5, 5, 64)          0         \n","                                                                 \n"," flatten (Flatten)           (None, 1600)              0         \n","                                                                 \n"," dense (Dense)               (None, 512)               819712    \n","                                                                 \n"," dropout_4 (Dropout)         (None, 512)               0         \n","                                                                 \n"," dense_1 (Dense)             (None, 1)                 513       \n","                                                                 \n","=================================================================\n","Total params: 1,219,105\n","Trainable params: 1,218,529\n","Non-trainable params: 576\n","_________________________________________________________________\n"]}],"source":["model=models.Sequential()\n","model.add(layers.Conv2D(32, (3,3), activation
…
data from https://storage.googleapis.com/tensorflow/keras-applications/vgg16/vgg16_weights_tf_dim_ordering_tf_kernels_notop.h5\n","58889256/58889256 [==============================] - 0s 0us/step\n","Model: \"vgg16\"\n","_________________________________________________________________\n"," Layer (type)                Output Shape              Param #   \n","=================================================================\n"," input_1 (InputLayer)        [(None, 150, 150, 3)]     0         \n","                                                                 \n"," block1_conv1 (Conv2D)       (None, 150, 150, 64)      1792      \n","                                                                 \n"," block1_conv2 (Conv2D)       (None, 150, 150, 64)      36928     \n","                                                                 \n"," block1_pool (MaxPooling2D)  (None, 75, 75, 64)        0         \n","                                                                 \n"," block2_conv1 (Conv2D)       (None, 75, 75, 128)       73856     \n","                                                                 \n"," block2_conv2 (Conv2D)       (None, 75, 75, 128)       147584    \n","                                                                 \n"," block2_pool (MaxPooling2D)  (None, 37, 37, 128)       0         \n","                                                                 \n"," block3_conv1 (Conv2D)       (None, 37, 37, 256)       295168    \n","                                                                 \n"," block3_conv2 (Conv2D)       (None, 37, 37, 256)       590080    \n","                                                                 \n"," block3_conv3 (Conv2D)       (None, 37, 37, 256)       590080    \n","                                                                 \n"," block3_pool (MaxPooling2D)  (None, 18, 18, 256)       0         \n","                                                                 \n"," block4_conv1 (Conv2D)       (None, 18, 18, 512)       1180160   \n","                                                                 \n"," block4_conv2 (Conv2D)       (None, 18, 18, 512)       2359808   \n","                                                                 \n"," block4_conv3 (Conv2D)       (None, 18, 18, 512)       2359808   \n","                                                                 \n"," block4_pool (MaxPooling2D)  (None, 9, 9, 512)         0         \n","                                                                 \n"," block5_conv1 (Conv2D)       (None, 9, 9, 512)         2359808   \n","                                                                 \n"," block5_conv2 (Conv2D)       (None, 9, 9, 512)         2359808   \n","                                                                 \n"," block5_conv3 (Conv2D)       (None, 9, 9, 512)         2359808   \n","                                                                 \n"," block5_pool (MaxPooling2D)  (None, 4, 4, 512)         0         \n","                                                                 \n","=================================================================\n","Total params: 14,714,688\n","Trainable params: 14,714,688\n","Non-trainable params: 0\n","_________________________________________________________________\n"]}],"source":["model=applications.VGG16(weights=\"imagenet\", include_top=False, input_s
…
